workspace/base_modl,k=10/checkpoints/final.epoch0049-score39.6311.pth (torch, 468787 bytes, 30 tensors)

dw.nw.0.weight f4 [64, 2, 3, 3]
00000000: e270 73bd af8e 573d f7d5 cc3c 3828 503e
00000010: 8a17 aebe e4e2 1f3e d0a0 84bd 872d 873e
00000020: 157a 3ebe 13ac a23b 145d 163e 9887 a9bd
00000030: f96e 963b 8b8a 88be f6b6 783e 3211 803e
00000040: 5f55 e3be 1948 293e 0424 f03d 9f45 f4bd
00000050: 6c18 99be 343e 2a3e 60eb 353e 2345 debe
00000060: 7229 ccbd 0a6b 973e 9f4e 933e c6d2 cc3d
00000070: 0f85 94bd 22f9 943e 276e febd 6be2 393e
00000080: 05e5 4d3e a944 70bd 8c3a 13be 57c1 8abe
00000090: bc5c 6e3d 8819 4fbe c5de 3d3c 67fb b4bd
000000a0: 1e25 a73e d1c7 d43d 7bc3 07bd 0ea0 35bd
000000b0: 23bf c6bd 04b3 68be 7257 853e b392 6b3e
000000c0: 422f 893d f9dc adbe 0f8d 47be 4968 183e
000000d0: ce8a 263e 5d4d c1bd 8386 3dbb 197a 373e
000000e0: dbf6 43be 6455 613e 0764 423e 0ac1 f83c
000000f0: 9483 a83c 6cb5 82bd d11c d5be 2610 f03d
00000100: 3b10 febd 9dae a5bd 1d2b cbbd 1a84 8e3e
00000110: fd67 44be 1b60 b93c 149b 903c 0294 303e
00000120: d1d0 ed3d e069 9dbd e326 6abe 9702 423e
00000130: 79d9 5bbe a0bb 1ebd 44f2 32bd a6da 88be
00000140: eb2b 51be 3b0e b33d 607e a83e 5004 003e
00000150: 989b 543e 88f2 ae3e 24f7 2f3e 3c6e 61bb
00000160: a5c6 fc3d 42b3 863e 40c1 a4bd 9677 033e
00000170: b685 513d 0463 c13d cffe 63be d1f5 c2bd
00000180: 9a66 3f3c f144 8bbd a14f 263e ab70 dcbd
00000190: 00dc 743e 10e6 47be ba7b 943d 53c0 78be
000001a0: 3b9b 993e ba5a 4bbd ae5d df3d 0452 e2bd
000001b0: 9b92 00bc e4ed 5c3e e81f 2bbe c2f9 323e
000001c0: cbb2 eebd bd3a 19bd b1ca b1bc e6c4 873c
000001d0: a09c 94bc 8045 80bd 100f 98bd f160 333d
000001e0: c892 71be 2559 91be 02a6 f43e f2cd a0bd
000001f0: 7b21 4bbd 68f8 9e3e 19e8 133e f7f8 ccbd
00000200: bafe ee3c 1b4e 4cbd 222d 913e bb84 a33d
00000210: 09d2 a3be 34bd aabd 042e 213d a2f2 ac3d
00000220: df25 d63c 247a 07ba 5487 9fbd 5ab7 093e
00000230: 51de cc3d 56e9 98be 842b a4be 7c47 7d3e
00000240: 0ef6 2b3e 54ba a6be 37a1 da3c f007 5d3e
00000250: e83a f13d e587 8ebc 479c 783e 4bdc b73d
00000260: cfe2 8dbe 2b8e 8ebe 22be 6e3e ff36 933e
00000270: 7c86 b1bc 6b9c 22be 29ee fa3d 7af0 04be
00000280: 7c5a f7bd 1656 083e 1a26 543e ed85 773e
00000290: afab 00be fc1f a03e e330 46be d07c a13d
000002a0: 6739 16be 262a 79be 66cd 93bd cdd1 9b3e
000002b0: a862 acbd 04ec 8e3c 5378 cabd f04e 9ebe
000002c0: f52c d83d 7915 41bd b67c 463d 866b 3e3e
000002d0: 54d7 2abe aea3 2ebe dba3 d4bd dd94 bbbe
000002e0: 0412 813d c75d db3b c5a5 9a3e 5473 ae3e
000002f0: 156a e03d 8594 12be d057 073e 9a45 4b3d
00000300: 46cb d73d 4341 cf3d fabc 063e 1a12 283e
00000310: 35cc c7be afc2 12bd 4556 ee3c f038 1ebd
00000320: fc47 a93c 0a4f 493e bf43 87be 260b b73d
00000330: ca24 7fbd 0477 cd3d a49a c1bd 2036 c63c
00000340: fd68 f0bd 569e 12bd 96b5 a23e 1a0a 023e
00000350: da04 79be 7968 533d b590 833e aaa1 9abe
00000360: 034b 9c3c e1f3 b53c 52be 423e 7087 2fbe
00000370: 3c5d ecbb 5c31 aebc 0c87 0c3e 4f28 72bb
00000380: 46f9 46be 31ca dabd d283 96be 3d52 c9be
00000390: 8bac 8a3e 1313 f53c bef7 433e 8049 0ebe
000003a0: 6088 8a3e 8d93 3e3e ba02 d3bd ec56 8f3d
000003b0: f113 b2bc 35a0 46bc 09a5 ca3e 1ca8 a5be
000003c0: 279c a4be 38a2 953e 1823 55bc cd32 19be
000003d0: 88cb b3bb 69ad 173e 84b6 ac3e 6b67 2ebe
000003e0: cf5d fcbd c2e6 52bc d5d5 24be ee1b 213e
000003f0: 81f1 0ebc fc13 7d3d 7771 de3d 483b a0bd
-0.059433825 0.052626308 0.02500437 0.20327842 -0.34002334 0.15613896 -0.06475985 0.26401922
-0.18601258 0.0049643605 0.14683944 -0.082778156 0.0045908657 -0.266682 0.24288544 0.2501312
-0.4440107 0.1653141 0.117256194 -0.11927342 -0.29901445 0.16625291 0.1776557 -0.43412122
-0.099688426 0.29573852 0.2877092 0.10001139 -0.072519414 0.29096323 -0.12423354 0.18152778
0.20106895 -0.05865923 -0.14377803 -0.27100632 0.058193907 -0.20224583 0.011588757 -0.08837014
0.32645506 0.103896745 -0.03314541 -0.044342093 -0.09704425 -0.22724539 0.26043278 0.2300518
0.06698467 -0.3395765 -0.19487403 0.14883532 0.16263887 -0.09438584 -0.0028919287 0.1791767
-0.19137137 0.2200523 0.1898347 0.030365486 0.020570554 -0.0638226 -0.41623548 0.1172183
-0.124054395 -0.080899455 -0.099203326 0.2783516 -0.19180293 0.022628834 0.017652072 0.1724396
0.11612094 -0.0768621 -0.22866397 0.189463 -0.21469678 -0.038753152 -0.043688074 -0.26729316
-0.2042691 0.087429486 0.32908916 0.12501645 0.2076248 0.34169412 0.1718412 -0.003439798
0.12342576 0.26308638 -0.08044672 0.12838587 0.051152907 0.09442714 -0.2226517 -0.09519542
0.011682177 -0.06800259 0.16241314 -0.10763677 0.23912048 -0.19521356 0.072501615 -0.24292116
0.30001244 -0.04964707 0.1090654 -0.110507995 -0.0078474535 0.21575123 -0.1671139 0.17478088
-0.11655196 -0.037409533 -0.021703096 0.01657338 -0.01814109 -0.06263256 -0.07424748 0.043793622
-0.23591149 -0.28388324 0.47782904 -0.07851781 -0.049592476 0.31048894 0.14444007 -0.10008424
0.029174197 -0.049879175 0.28354746 0.07984301 -0.31996182 -0.08336869 0.039350525 0.08444716
0.026141105 -0.00051680417 -0.07789484 0.1344885 0.10003341 -0.2986552 -0.3206445 0.247343
0.16793081 -0.32564032 0.026688201 0.21585059 0.117788136 -0.017398784 0.24278365 0.089775644
-0.27712104 -0.2784284 0.23314717 0.28752896 -0.021670572 -0.15879981 0.12252457 -0.1298236
-0.120778054 0.13314089 0.2071766 0.24172182 -0.12565492 0.31274402 -0.19354586 0.07885134
-0.14670335 -0.24332485 -0.07216911 0.30433503 -0.08417255 0.017446525 -0.09886231 -0.309196
0.1055545 -0.04713962 0.048458777 0.18595704 -0.16683704 -0.17054626 -0.103828155 -0.3663701
0.06302264 0.0066945287 0.30204597 0.34072363 0.109577335 -0.14314468 0.13217092 0.049626924
0.10536818 0.101198696 0.13158026 0.16413155 -0.39022985 -0.035830196 0.02909387 -0.03862852
0.020664208 0.19659057 -0.26418874 0.08937673 -0.062290944 0.10032466 -0.094533235 0.02419573
-0.11738775 -0.035795532 0.31779164 0.12699166 -0.24318257 0.051613305 0.2569634 -0.30201465
0.019078737 0.022211017 0.19017914 -0.17141509 -0.007213263 -0.02126377 0.13723391 -0.0036950295
-0.19431028 -0.10683096 -0.29397446 -0.39320555 0.27084765 0.029916322 0.19137475 -0.13895226
0.2705717 0.18610974 -0.103032544 0.06999001 -0.021738024 -0.012123157 0.39579037 -0.3235482
-0.32150385 0.29225326 -0.013008855 -0.14960785 -0.0054869093 0.14812244 0.33732998 -0.17031638
-0.1232258 -0.0128724 -0.16097195 0.1573331 -0.008724571 0.061786637 0.108614855 -0.07823807

dw.nw.0.bias f4 [64]
00000000: f327 f7bd 09c0 bcbd 9d7a 3bbd e5e7 f9bd
00000010: 2a86 f3bd 2abe 23be e592 06bd 670f 643e
00000020: f9c7 9f3d d902 2a3e ce76 0ebc 8a04 2ebd
00000030: 8c9d a1bd 666b f33d ad83 2f3e e82f 683e
00000040: 7d64 6b3e 2246 653e 4216 213e 8ea9 ccbd
00000050: 51e1 0f3e 5f34 4ebe 1173 eb3d c4ef e13d
00000060: 1f4a aabd 2cd8 073e 9126 0cbe 4548 253e
00000070: 6c5d f03c 4f33 2f3e 95f6 86bd 5c87 573e
00000080: dff0 53be a4ae 60bc b7ad 093c d16a 563e
00000090: d8e5 3bbe 5024 aebd 7d8d 7cbe 9bef 3abd
000000a0: 4b68 1d3a c232 b63d 14ac 23be b12a 783c
000000b0: 7d47 843d a08d 44be 9d47 91bd 1314 e4bd
000000c0: 56bc d5bd 9de8 073e f721 b4bb ff90 16be
000000d0: 8822 e1bd 3678 343e 1de7 cb3d 4748 23bd
000000e0: 319f 74bd 4761 c7bd 47fc 98bc 6851 9a3d
000000f0: c7a6 febd f0fb 4d3e e4ba 4c3e 5fc6 24be
-0.120681666 -0.09216315 -0.04577123 -0.122024335 -0.11890824 -0.1599051 -0.032854933 0.222715
0.07801814 0.16602649 -0.008695317 -0.042484798 -0.07891378 0.11885719 0.17140074 0.22674525
0.22987552 0.22390035 0.15731147 -0.099932775 0.14050795 -0.20137165 0.114965566 0.1103206
-0.08314919 0.13266057 -0.13686587 0.1614085 0.029341422 0.17109416 -0.065900005 0.21047729
-0.20697354 -0.013713513 0.008403233 0.20939185 -0.18349397 -0.0850302 -0.24663348 -0.04563866
0.00060046156 0.088964 -0.15983611 0.015146897 0.06458948 -0.1919465 -0.07093737 -0.11136641
-0.10436313 0.13272329 -0.005497213 -0.14703749 -0.109929144 0.17623982 0.09956191 -0.03986385
-0.05972213 -0.09735351 -0.018674983 0.07535058 -0.12434154 0.20115638 0.19993168 -0.16091298

dw.nw.1.weight f4 [64]
00000000: 80d9 663f 3f30 743f 41f1 5d3f d41e 373f
00000010: 1be7 133f 4a50 3e3f 37e6 8c3f 3e2f 703f
00000020: d1a4 6d3f ee5d 523f def0 703f f84a 6a3f
00000030: fff8 883f 1a80 783f 4020 623f ec5d 3f3f
00000040: cc08 6c3f 719b 373f 9c27 513f a74a 303f
00000050: c494 833f 61ef 393f 8ab6 653f 05cd 903f
00000060: edc2 5d3f 12eb 653f 7a38 863f 9461 653f
00000070: b250 4a3f 2330 5d3f 9ee5 5f3f 9e68 643f
00000080: d63b 3d3f ac13 573f 1418 893f 61c0 983f
00000090: aad9 673f 4104 7b3f 6c47 913f 5a18 373f
000000a0: 0ec2 803f 77f0 7b3f dfb7 3b3f ad57 403f
000000b0: 02be 943f 4ae4 993f a34a 843f 51e8 433f
000000c0: e0e0 5f3f fd4d 7f3f e68a 6f3f 8bb2 6c3f
000000d0: aff3 853f efc4 723f 9e99 9c3f d09f 453f
000000e0: a68f 4d3f 43dc 763f e06d 9c3f 84ec 853f
000000f0: 3aea 823f cf83 813f a0c4 7a3f 622a 4e3f
0.9017563 0.9538612 0.8669625 0.71531415 0.57774514 0.7434126 1.1007756 0.93822086
0.92829615 0.82174575 0.94117534 0.91520643 1.0700988 0.9707047 0.8833046 0.7475269
0.9220092 0.7172156 0.81701064 0.6886391 1.0279775 0.7263089 0.8973166 1.1312567
0.8662556 0.89811814 1.0485985 0.8960202 0.7902938 0.86401576 0.87459743 0.89222133
0.7391943 0.8401439 1.0710473 1.1933709 0.90566504 0.98053366 1.1349921 0.7152153
1.0059221 0.98413795 0.7332744 0.7513378 1.1620486 1.2022793 1.0335277 0.7652636
0.87452507 0.99728376 0.9357132 0.92459935 1.0464991 0.94831747 1.223438 0.7719698
0.80297315 0.9642984 1.2221031 1.0462804 1.022773 1.011835 0.97956276 0.8053342

dw.nw.1.bias f4 [64]
00000000: 0777 2040 fe21 ae3a 3fae 1a3f e16b de3b
00000010: a8b3 ccbd 5fe3 4b40 9d4d 82bd e8fa 5f3e
00000020: 8ecf 0f3d 37b9 08bd 2ab0 913c c5f7 cc3e
00000030: 3b3d ca3c 6918 1fbd 6ecf 443f 271b 7e3e
00000040: b0e1 7abd 4f93 be3e afcf f03c a248 493b
00000050: 0e05 f53d 2b97 e43d f84d 4dbd 3696 223d
00000060: 4dff 97bd 8481 43be 81f2 ba3e e2af 9cbe
00000070: 9de0 803f f041 98bd b62a 7a3f dacf 21bd
00000080: 69fd e53e 8e09 31be b008 a4bd bf5a e5bd
00000090: 6dfa 98bb 373f 283f ede6 b5bd 2ed9 643b
000000a0: 6722 34bd 80e3 053f 63c7 563e 46db ae3e
000000b0: 3c43 363e 3385 56bd ebd4 d2bc e962 b0be
000000c0: b965 0a3f 7186 52bd 0cef 823d f249 19bd
000000d0: d00a 80be b330 3fbd 9113 8b3f 4558 3cbe
000000e0: 8c3d a43e dddb 98bb 64e9 a0bd 3496 683f
000000f0: e34f 51be f825 1140 3c5a 083f c4f0 843d
2.5072649 0.0013285277 0.6042213 0.0067877625 -0.09995204 3.1857526 -0.0636246 0.21873057
0.03511005 -0.03337976 0.017784197 0.40032783 0.0246874 -0.03884164 0.7687901 0.24815045
-0.06125039 0.37221763 0.029395906 0.0030713459 0.11963855 0.111616455 -0.050123185 0.039694034
-0.07421742 -0.19092375 0.3651314 -0.30602938 1.0068547 -0.074344516 0.9772142 -0.039504863
0.449199 -0.17288801 -0.080094695 -0.11198949 -0.004668525 0.6572146 -0.08881936 0.0034919488
-0.04397812 0.5230026 0.20974497 0.34151667 0.17799085 -0.052373122 -0.025736293 -0.34450462
0.54061466 -0.051397745 0.06393251 -0.037424035 -0.2500825 -0.046677303 1.0865346 -0.18393047
0.32078207 -0.0046648816 -0.07857016 0.9085419 -0.2044063 2.2679424 0.53262687 0.06491235

dw.nw.1.running_mean f4 [64]
00000000: 0b80 fdbd f352 cebd 08ca 41bd 8351 05be
00000010: 9be0 6ebe d7c5 23be 7109 18bd 06ff 6b3e
00000020: 00ff 8f3d 97b7 1f3e 1615 90bc 9dab 44bd
00000030: 72a7 a3bd 63ed f03d dd24 323e fcfc 5f3e
00000040: 0c06 6d3e 08b1 623e b8ea 353e 0d3a cabd
00000050: f6cb 0f3e 6141 4ebe 0eaa d83d 4110 e13d
00000060: e660 84bd d939 3a3e 06d9 0bbe 3e15 443e
00000070: b89e fa3c 41eb 303e 96a0 8abd b46e 583e
00000080: 1b9c 58be 5bfa 34bd b7e2 8b3c 4beb 563e
00000090: bcf0 35be 428c b1bd b23d 7cbe 6586 d63c
000000a0: 1761 1c3a 50b0 b53d a67a 33be bafa 633c
000000b0: ba64 813d 9feb 48be 26bb 8fbd 6ce9 44be
000000c0: 45cc d6bd c7d5 063e e3bd a7bb 809b 15be
000000d0: 1e92 a6bd 3553 333e 3bf4 c73d 0b51 bbbd
000000e0: 3b00 5ebd 987f b6bd 78d8 94bc 9740 993d
000000f0: 8149 f9bd cb3c 533e ce14 4e3e 07b1 24be
-0.12377938 -0.10074415 -0.047311813 -0.13019376 -0.23327868 -0.15993439 -0.03711838 0.23046502
0.07031059 0.15597378 -0.01758818 -0.048015226 -0.07990922 0.11764028 0.17396875 0.2187385
0.23146838 0.22137845 0.1776532 -0.098743536 0.14042649 -0.20142128 0.1057931 0.10989428
-0.064637944 0.1818613 -0.13657007 0.19148728 0.030593261 0.17277242 -0.067689106 0.2113598
-0.211533 -0.04418407 0.01707588 0.20988195 -0.17767614 -0.0866933 -0.2463291 0.026187131
0.0005965395 0.088715196 -0.17527255 0.013914758 0.0631804 -0.19621132 -0.070181176 -0.19229668
-0.1048818 0.13167487 -0.005119072 -0.146101 -0.081333384 0.1751221 0.0976338 -0.09146317
-0.05419944 -0.08911055 -0.018169627 0.07483023 -0.12172223 0.2062866 0.20125124 -0.16083156

dw.nw.1.running_var f4 [64]
00000000: 6e37 ff39 ef41 2b3b 7e89 1c3a cad1 a93a
00000010: a070 aa3d da66 2e39 6198 183b b74e cb3a
00000020: d817 353b d468 af3a b5e3 023b 2ef2 d33a
00000030: 3e04 1b3b c5fe 0e3a d8e1 903a eb2e a23c
00000040: d447 183a 9d56 183b 0294 803b 30d8 163b
00000050: f355 2f3b ceef 193d ae0f 273b 8fc6 ec3a
00000060: 4677 5c3b 5773 273c e336 043b 47f2 7a3b
00000070: 5b9f b139 d670 df39 ec90 4e3a fa27 7b3a
00000080: 2cf2 8c3a 5f2a be3b 8e3c 1f3b d705 0b3a
00000090: 49eb 853b cab0 113b f22d 013a d495 c93c
000000a0: 85e4 773a e106 9e3a f9c0 333b 7aa4 c23a
000000b0: 4cd4 623b b28d 483a 509b 433a 781f a63c
000000c0: 45cc 6d3a 673b 8a3a dd05 f33a 8fc6 053a
000000d0: 438a a93b 459c b63a b32b f23a 497a e23c
000000e0: 8840 343b 3a3c 823a db05 453a ffbd 5c3a
000000f0: 6b07 733b 6f8c fb39 9ab8 0b3b 9f1a 8e3a
0.00048678688 0.0026131829 0.00059714157 0.0012956199 0.08322263 0.00016632248 0.0023284184 0.001551113
0.002763262 0.0013382682 0.001997215 0.0016170198 0.0023653652 0.0005454834 0.0011053635 0.019797763
0.0005809043 0.0023244985 0.003923894 0.0023017041 0.002675411 0.03758221 0.0025491524 0.0018064546
0.0033640428 0.01022037 0.0020174317 0.0038291381 0.000338788 0.00042617944 0.00078798714 0.0009580847
0.0010753325 0.005803391 0.0024297568 0.00053032994 0.004086886 0.0022230619 0.0004927806 0.024607576
0.00094563543 0.0012056493 0.0027428253 0.0014850043 0.0034611402 0.0007650509 0.0007461803 0.020278677
0.0009071271 0.0010546268 0.0018541176 0.0005103135 0.005173953 0.001393207 0.0018476158 0.0276462
0.0027504284 0.0009936162 0.0007515826 0.00084206456 0.003708328 0.00047979082 0.0021319748 0.0010841674

dw.nw.3.weight f4 [64, 64, 3, 3]
00000000: fe27 4a3d 8b24 bd3b 2420 023d c9eb d9bc
00000010: 2672 dbbc 8d95 27bd f403 68bd 704b 2d3d
00000020: edfc 3ebb 24ef adbd 2bc8 b0bc cf33 1c3e
00000030: 9be3 32bc 91a1 1ebd 2a28 303c 8e7e 5ebd
00000040: 6e8a b6bd 0550 81bd 41c6 7d3d d240 d23c
00000050: 3a99 553d 75b2 8abd a570 48bd 28be 54bd
00000060: 35f5 3c3d 766c cbbc b8c0 23bd 6b3b 2cbd
00000070: a9b8 133e 07f4 1d3e 3981 613d 2b35 963e
00000080: 11f2 5b3c 4810 0b3c 8788 fc3d 98f6 d83d
00000090: cd99 afbd 9fd8 37be 2ec7 a2bd ad09 b2bd
000000a0: 1c31 74bd 20d6 bbbc 9be4 94bd b574 0dbd
000000b0: 8227 f9bd 5e03 39bd 4f31 5abd 7ff0 6dbd
000000c0: 6851 c03d 001f 62bd 1ad9 b13d 8582 373c
000000d0: f0e4 9a3c 617f 3c3c 1b92 373e 57bf c03d
000000e0: b717 a33d a583 5a3d a622 26bd d97c a4bc
000000f0: 35c1 0f3d d405 093d 03c7 553d fbe7 25bd
00000100: 8fd9 233e 6edf c53c b31a 1fbd cb79 8abd
00000110: 4fa8 06bd 9907 bcbc 4fe9 913c d714 61bd
00000120: 36d8 c5bc be44 bb3d 50e1 c8bc edf5 0f3e
00000130: 3943 aabd fa76 65bd 6c94 b43d ed67 d43d
00000140: f9f2 1c3d 8afc 093c b5a5 afbd d181 233d
00000150: b50e cebc a592 a93c 0a28 673c 9056 a23c
00000160: f522 ad3d 61e0 4fbd 7541 013e f21f 893d
00000170: faa2 933c 08cd db3d 4640 7d3d f3b8 48bd
00000180: deab 683a 88e8 a4bc 0847 b7bd 01b9 9fbd
00000190: e5f0 1e3d 4258 1abe bc5d 49be 6a98 243e
000001a0: 9ade 243d c20c 9c3c e7cd 763d 5169 133d
000001b0: 7bee 223d 9cb3 e83d fcab 83bc dba6 48bd
000001c0: 0000 0fbc 48cd 453d 5988 5b3c 9c6c af3c
000001d0: 705a 7e3d 9832 b03d d0f1 d13d 44b5 cdb9
000001e0: 04da 6abb 22cb 0d3c 1570 f53c 193c 4a3a
000001f0: eb71 b03b a064 9d3d 540c 91bd 229c 97bc
00000200: df9b 923c 8a96 103e b3b3 e8bd 535d 3bbe
00000210: 4fa1 0c3e 0a58 aebc b2d3 82bd 03b0 2e3e
00000220: 8fa4 d03d 78c6 a83d 77f1 173e b3f7 043e
00000230: a88a 073e 4c85 f93d 358d 373e cad9 473e
00000240: 4011 8e3b 2e9c 12bd e8e3 dfbd c2bd 29bd
00000250: c15f 94bc 97dd e43b bcf6 cc3a 13f4 da3c
00000260: 6a94 e23b eca8 7a3d b863 a8bd 1b61 4e3d
00000270: 09ff 67bc 647a 023d 31ec f53d 6bd6 5a3d
00000280: afe8 833d cdcd 6b3d e7a8 5a3c b66c 30be
00000290: 6698 2ebe 0fbe 1bbe 7f7b 92bd 2c87 97bd
000002a0: 9699 b33d 8e76 653e 204f be3d 2b13 573e
000002b0: 06eb 343d c044 f53d 09fe 25be 375a 24bd
000002c0: 9e08 bc3b 9814 a3bd 823d 96bd a243 3e3c
000002d0: e419 f63d 61a6 b6bc 75b0 d6bd a136 073d
000002e0: 5593 6cbc 09e7 c7bd 4de0 08be e467 abbc
000002f0: 2869 ac3d 1918 1ebe 5a7f 48be 3359 0abc
00000300: fb46 a7be 23e1 2abf 0710 c6be 0504 5dbe
00000310: d8f8 0cbf 273f d7be 42ae 303c aba0 5d3c
00000320: 8704 9dbd df4f 61be ff49 87be 2378 02be
00000330: c44a 00bd 20a6 4dbd 2c62 4a3c e79b 943c
00000340: 9113 993d 2441 323a eaaf c23d c0b4 443d
00000350: aac3 a53c 5519 093e 45cb 7ebd a541 05bd
00000360: 8f14 d2bc 9f44 9bbd f550 a9bb 784c 2fbe
00000370: 590d 58be e987 4f3b 02c3 5ebe 7a1e 85be
00000380: 40ea 3dbe a3e6 753d c2e1 f8bd e64d 0b3d
00000390: e30f 153e a932 dc3d 3f26 7b3d aed0 ec3d
000003a0: d6f0 233d ba19 27be ed44 673d 4f69 17bd
000003b0: 4e7d aebd 519d 02bd 44d7 afbd 9342 07bd
000003c0: f731 e33d 66a2 b6bc c2dd 903c 7d85 a7bd
000003d0: 624a fe3d 0cc8 023e 5166 a5bd 28c3 68bd
000003e0: 4317 35bd cb60 1ebd 023f 243d 0f85 96bd
000003f0: b352 d8bd 7e7c 0ebd c418 e53d d47b abbd
0.049354546 0.0057721785 0.031768933 -0.026601689 -0.026787829 -0.040914107 -0.056644395 0.04230827
-0.0029142455 -0.08492878 -0.021579823 0.15254138 -0.010918523 -0.0387283 0.010751763 -0.05431991
-0.08913122 -0.06314091 0.061956648 0.025665674 0.05214808 -0.06772319 -0.04893555 -0.05193916
0.046132285 -0.024831992 -0.039978713 -0.042048853 0.14425911 0.1542512 0.055054877 0.2933744
0.013424412 0.0084877685 0.12330728 0.10593909 -0.08574257 -0.17953728 -0.07948147 -0.08693252
-0.059617147 -0.022929251 -0.072701655 -0.03453513 -0.12165739 -0.045169227 -0.05326968 -0.058090683
0.09390527 -0.055205345 0.08683987 0.011200552 0.018907994 0.011504979 0.17926829 0.09411495
0.079635076 0.053348202 -0.040560387 -0.020079063 0.035096366 0.033452824 0.052191745 -0.040504437
0.16000961 0.024154391 -0.03884382 -0.067615114 -0.032875355 -0.022952842 0.017811446 -0.054951515
-0.024150949 0.09143971 -0.0245215 0.14058657 -0.08313603 -0.056021668 0.08817372 0.10371385
0.038317654 0.008422026 -0.08576528 0.039918724 -0.025153497 0.020699808 0.014108667 0.019816667
0.08453933 -0.050751094 0.12622626 0.06695546 0.01802205 0.10732466 0.061828874 -0.049004506
0.0008875708 -0.02013041 -0.08949095 -0.077989586 0.038803954 -0.1507273 -0.19664663 0.16073766
0.040251352 0.019049052 0.060254958 0.03598911 0.039778214 0.11362383 -0.01607322 -0.04898725
-0.008728027 0.048291475 0.013399207 0.021414094 0.062097967 0.086034 0.102512 -0.000392357
-0.0035835514 0.008654388 0.029960671 0.0007714644 0.005384674 0.07685208 -0.070824295 -0.018507067
0.01789659 0.14119926 -0.113624 -0.18297319 0.1373341 -0.021282215 -0.06388034 0.1705933
0.10187637 0.0824098 0.14838205 0.12985115 0.13236487 0.121836275 0.1792496 0.19516674
0.0043355525 -0.035793476 -0.109321415 -0.041440733 -0.018112065 0.0069844234 0.0015637497 0.026727712
0.006914665 0.061196253 -0.08222145 0.050385576 -0.014159926 0.031855002 0.120079406 0.05342714
0.06440865 0.057569314 0.0133459335 -0.1722897 -0.17050323 -0.1520922 -0.07152461 -0.07398829
0.087695286 0.22408506 0.09292436 0.21003406 0.04416945 0.11976004 -0.16210188 -0.040125098
0.005738332 -0.07962912 -0.073359504 0.011612805 0.12016657 -0.022296133 -0.10482875 0.033011083
-0.014439424 -0.09760863 -0.13366814 -0.020923562 0.084184945 -0.1543888 -0.19579831 -0.008444118
-0.3267134 -0.6674978 -0.38684103 -0.21583565 -0.55067205 -0.4204037 0.010783734 0.013527076
-0.07666879 -0.22003125 -0.26423642 -0.12741141 -0.031321302 -0.050207257 0.012352508 0.018140746
0.07474435 0.0006799868 0.09506209 0.04802394 0.020234901 0.1338857 -0.06220557 -0.032533307
-0.025644569 -0.07581448 -0.0051671215 -0.17119014 -0.21098842 0.0031666702 -0.21754077 -0.25999814
-0.1854639 0.060034405 -0.12152435 0.034009837 0.14556842 0.1075185 0.06131577 0.1156324
0.0400246 -0.16318408 0.056462217 -0.036965664 -0.08519994 -0.03188831 -0.085859805 -0.033022474
0.110935144 -0.022294234 0.017683867 -0.08179758 0.12416531 0.12771624 -0.08076156 -0.05682674
-0.044211637 -0.038666528 0.04009915 -0.07349598 -0.105626486 -0.034786694 0.11186364 -0.08373228

dw.nw.3.bias f4 [64]
00000000: 7b4d 583c 9de6 2c3c 5247 273d 5922 d33c
00000010: 13e6 20bd bef8 ca3c 553d 98bc df51 a63c
00000020: f12e 4fbc c161 74bc 8699 3abc 292d dc3c
00000030: ddcc 173c 0d7a 03bc e143 4a3b 9a15 17bd
00000040: e82d 88bc ce3c 0fbd 0a3b 09bc b537 14bc
00000050: 5fea f03c c583 b43b a51d ef3c 6238 d63c
00000060: f9c4 803b ea90 1dbc d82a eebb bb58 ddbb
00000070: 547b 10bd 0033 fdbc 28ad 0dbd 026b 1f3d
00000080: 2d7a b83c 0c06 38bc f28e 103d 1354 db3c
00000090: 2798 88bc d63d 343c 72a1 703c 0b2a cf3c
000000a0: 2294 43bc d00b e0bc 5a69 5cbb 1fd6 bd3b
000000b0: 555d 9a3c 536f d2bc a369 68bc accc c0bc
000000c0: 171d c5bc 5223 abbc 7563 a73c bfd0 d03c
000000d0: aebd e93c a39e 5d3c 3b7e 66bc 1911 0a3c
000000e0: c2fb 7f3c 95eb 1a3d cb20 873c e15f e3bc
000000f0: d4af 2d3d 4d31 8ebc a55d d1bc aa2c 953c
0.0132020665 0.010553029 0.0408395 0.025773214 -0.039281916 0.024776813 -0.018583933 0.020302711
-0.012645469 -0.0149158845 -0.011389142 0.026877003 0.009265152 -0.008024705 0.0030863213 -0.036885835
-0.016623452 -0.034970097 -0.008375892 -0.009046485 0.029408632 0.005508872 0.02918894 0.026149932
0.003929731 -0.00961707 -0.007268291 -0.0067549623 -0.035273865 -0.030908108 -0.034588963 0.03892041
0.022519195 -0.01123191 0.035292573 0.026773488 -0.016674114 0.011001071 0.014686929 0.025288602
-0.011937173 -0.027349383 -0.003363213 0.0057933475 0.018843332 -0.02568785 -0.014185342 -0.023535095
-0.024061723 -0.020890865 0.020433167 0.025490163 0.02853283 0.0135265915 -0.014068182 0.008426928
0.015623989 0.037822325 0.01649513 -0.02775568 0.04240401 -0.017357493 -0.025557349 0.018209774

dw.nw.4.weight f4 [64]
00000000: cc83 823f f095 163f 13df 3f3f 9327 213f
00000010: 52e8 2d3f 1aaa 5b3f ff32 b53f d730 7e3f
00000020: 7e85 753f 8530 813f 5858 df3f 4b7c 983f
00000030: 77d4 803f cc62 8e3f 54ca a83f c766 9d3f
00000040: 28cc c43f 0415 733f 6a2d 663f 8981 0c3f
00000050: e62b 513f 8aea 603f 1ddd 223f 03df 5c3f
00000060: b000 2f3f d8a9 a53f 6967 543f 1a48 233f
00000070: 0a06 5e3f 8d02 243f 2f14 2e3f a138 5c3f
00000080: bba0 843f d6d2 5e3f 0049 533f e3e7 5f3f
00000090: 4b34 323f d333 2d3f 2340 923f 30d3 843f
000000a0: 7669 4b3f e0b9 623f 8bd0 383f 5703 923f
000000b0: 9add 563f 8126 833f a192 6d3f bd02 853f
000000c0: 7bda 3c3f abc1 743f 6b24 823f a0f6 803f
000000d0: dc4d 5a3f 7999 8c3f 1ca3 553f 7d4c 153f
000000e0: d8d2 873f 893f 363f dedc 573f 4f9a ad3f
000000f0: 8c21 563f f354 a93f 0696 4e3f 5112 493f
1.0196471 0.58822536 0.7494976 0.6295101 0.6793262 0.8580643 1.4156188 0.99293274
0.9590682 1.0092932 1.7448835 1.1912931 1.0064839 1.11239 1.3186746 1.229699
1.5374804 0.9495394 0.89913046 0.54885155 0.8170761 0.8785788 0.6361864 0.8627779
0.68360424 1.2942457 0.8297029 0.63781893 0.86727965 0.6406639 0.6799955 0.8602391
1.0361551 0.8704046 0.82533264 0.87463206 0.6961104 0.676572 1.1425823 1.0376949
0.79457796 0.8856487 0.7219321 1.1407269 0.8393189 1.0246125 0.9280186 1.0391461
0.73770875 0.95608014 1.0167364 1.0075264 0.85275054 1.0984336 0.8345201 0.58319837
1.061122 0.71190697 0.8432139 1.3562716 0.8364494 1.322905 0.8069767 0.78543574

dw.nw.4.bias f4 [64]
00000000: 3140 54be 1d59 f4bd 699c 1bbc 5d37 4f3e
00000010: b4ae 25be ad05 a23d 46b9 3dbf bb90 afbe
00000020: bb8d 6a3e 0bf8 34bb 6bb5 56bf 339c 4bbd
00000030: 276d 97be f9e6 0fbb 6ed8 42be c1fb e0be
00000040: c101 de3d a4c8 93be 0725 74be 4107 f73d
00000050: a31f 6a3c 46bd 0fbd ea9b 7e3e 7ce0 3ebe
00000060: 87db 18bd 492e 35be 96f1 8a3e c8fa 7cbe
00000070: c359 0dbe 4187 e7bd 75b4 a4be 6102 88be
00000080: 0f3f 06bc 681d 80be 7ca7 263e b527 9d3d
00000090: 1e25 cf3d c25a 4fb9 bbe3 30bd df4c 5ebc
000000a0: 87ba dc3d 0d1f 88be 106e 0d3e 51f7 dcbe
000000b0: b41a 94bd cb60 3ebe 9c9e 3abe 1d47 03be
000000c0: a90b cabe 6479 05bc 2bdb 9bbe bc2e 2bbe
000000d0: f82d 923e 88da c3be ab42 593d 60fc 9dbe
000000e0: c84b 413d 65bd 1dbf 1b46 37be ba27 ed3c
000000f0: 5908 a33d 29cc 29be 8273 22be e3a0 e03d
-0.20727612 -0.119310595 -0.00949774 0.20235963 -0.16179925 0.07911239 -0.7411083 -0.34290108
0.22905628 -0.0027613665 -0.8387057 -0.04970951 -0.29575464 -0.0021957739 -0.19027874 -0.43942073
0.10840178 -0.28864014 -0.2384225 0.120619304 0.014289769 -0.035092615 0.24864164 -0.18640321
-0.037318733 -0.17693438 0.2713744 -0.2470504 -0.13803773 -0.113050945 -0.32168928 -0.26564315
-0.008193745 -0.25022435 0.16274828 0.07673589 0.101145014 -0.00019774868 -0.04318593 -0.013568132
0.10777765 -0.2658619 0.13811517 -0.43157437 -0.07231656 -0.18591611 -0.18224567 -0.12820096
-0.3946202 -0.008146618 -0.3044065 -0.16717046 0.28550696 -0.38252664 0.053042095 -0.3085661
0.04719141 -0.6161712 -0.17897837 0.028949607 0.079605766 -0.16581787 -0.15864375 0.10968187

dw.nw.4.running_mean f4 [64]
00000000: 9bcc 05c0 eb8d 2840 f7df 31c0 071f 43c0
00000010: c38e 783f 0ece abc0 2f87 64c0 2f3d 79c0
00000020: 0da2 27c0 c10e 55bf d8c5 a4bf eda5 0ec0
00000030: 5657 94bf a009 24c0 359c f6bf c61a a7c0
00000040: af76 97c0 59b3 86bf fd6c 0ec0 6bf8 9bbf
00000050: a772 89c0 50e9 36c0 f4de ffbf ebd5 53c0
00000060: 1037 95bf 9270 1cc0 18bc 12c0 74e3 373e
00000070: 8b43 43bf 67db 363e 7eb8 b9be c293 05c0
00000080: aa23 90bf 58ee dbbf e3ed a53d 41a4 dbbf
00000090: dd26 8dc0 7253 76c0 48ce 2dc0 ba1c 2fbf
000000a0: 0493 8fbf e6ec e9bf fbf0 27c0 0f1f 67c0
000000b0: 2194 b8c0 9356 f2bf d7b3 abc0 6c97 8cc0
000000c0: c1f5 c040 88dc 49c0 9986 e9bf 0e45 16c0
000000d0: 7634 48c0 3a6f 85c0 3a6b 8bbf dee8 d0be
000000e0: f182 94c0 391e d7bf 6256 9fc0 f109 65c0
000000f0: 1105 37bf 7e39 39c0 d933 45c0 6e9c 883e
-2.0906131 2.633662 -2.7792947 -3.0487688 0.9709284 -5.368903 -3.570751 -3.8943594
-2.6192658 -0.8322564 -1.2872877 -2.2288773 -1.1589153 -2.5630875 -1.9266421 -5.2220182
-4.7332377 -1.0523483 -2.225402 -1.2185186 -4.2952456 -2.8579903 -1.9989915 -3.3099315
-1.1657429 -2.4443707 -2.2927303 0.1795786 -0.7627494 0.17857133 -0.3627357 -2.0871434
-1.1260884 -1.7182112 0.08102014 -1.7159501 -4.410994 -3.848843 -2.7157154 -0.6840321
-1.1216741 -1.8275421 -2.6240833 -3.6112707 -5.768082 -1.893267 -5.365703 -4.393484
6.0299993 -3.1540852 -1.8244201 -2.3479648 -3.128202 -4.1698275 -1.0892098 -0.40802664
-4.640984 -1.6806098 -4.979295 -3.5787318 -0.71492106 -2.894134 -3.0812895 0.26681846

dw.nw.4.running_var f4 [64]
00000000: 34ed e940 c9e4 0641 a724 2141 709f c640
00000010: 677c d641 6828 1f41 4a02 2e41 76bb f441
00000020: d184 2d41 14ef 4241 d98f 7041 7d5c 8e41
00000030: 0dab 5941 67bc 7741 c42d 5b41 7f9f cc41
00000040: 618c b041 f025 5d41 e715 7f41 4337 1141
00000050: f8b7 2f41 3233 b441 1560 f340 b77a 9541
00000060: 3b9a 1441 b041 9d41 869d 1e41 3236 c540
00000070: b933 6a41 2135 8441 d038 f940 347d 4141
00000080: 38f4 6e41 56df 8441 3d64 4e41 37e1 1b41
00000090: c97b 1e41 39cc 0a41 ece3 3541 dcd2 6741
000000a0: 8b40 7d41 7b35 c140 ccaa c040 fba5 0f41
000000b0: 5784 1d41 ee59 3641 da44 b441 02ea db40
000000c0: b552 a341 1ef5 ea40 4c5a 2642 f72d 0c41
000000d0: cfe0 2a41 e664 2341 0f74 2141 6fec 2741
000000e0: c194 7041 9ff7 e940 b702 e240 5aab 6641
000000f0: efc4 6e41 a743 9141 5736 4641 6791 5441
7.3102055 8.430856 10.071448 6.2069626 26.810743 9.947365 10.875559 30.591534
10.844926 12.183369 15.035119 17.79516 13.60426 15.483497 13.698673 25.577879
22.068544 13.821762 15.942847 9.075992 10.982414 22.524998 7.605479 18.68492
9.287654 19.657074 9.913458 6.1628656 14.637628 16.525942 7.788185 12.093067
14.934624 16.60905 12.899472 9.742484 9.905221 8.674859 11.368145 14.488979
15.828258 6.0377784 6.020849 8.978023 9.84481 11.3969555 22.533619 6.8723154
20.415384 7.3424215 41.58818 8.761222 10.679885 10.212133 10.090835 10.495223
15.036317 7.311477 7.0628314 14.416834 14.9230795 18.158033 12.388267 13.285499

dw.nw.6.weight f4 [64, 64, 3, 3]
00000000: f215 bf3d 5f37 0d3e 0c85 683e c42d 5f3e
00000010: c93c e83b 0349 d93c d72f e73d 6075 133e
00000020: a196 483e 52f6 32be 8e1a 963d 935f eb3d
00000030: 7008 683c a1dc 6b3c dafb 83bd 869d e3bd
00000040: 5957 9abc 31dc a23d 06bc d6bd af84 d6bd
00000050: 35ec 433d a3b3 31be 5aa1 33bc 75d0 36be
00000060: 2606 1dbe a9dc 1abd ea8f 2d3c 7b0a 453d
00000070: e514 81bd 29fa 8f3b b0ed f53d 6883 2bbc
00000080: a0f2 2d3d d216 873e 575f d13d eed2 4c3d
00000090: c980 913d ccfc 74bd c36e a83b 206d c23d
000000a0: bda0 e33c 0aae 74bd c4f9 be3c 3069 86bd
000000b0: ac03 06bd 747d 7e3e 00e3 a83d 54be 693d
000000c0: 934d ec3d 280b 663c 0477 e0bc 34e9 253e
000000d0: 31ec 423e 7832 063e d9b7 6ebe 9ef4 a5be
000000e0: e15f b0be eab5 a43c 93ed 8ebe 936d 38bf
000000f0: 3d1e b6be 0c9e dbbe 1cde 2bbf e949 043e
00000100: 1b57 0d3e 6867 703e 4222 15be 6cc3 20be
00000110: 5033 83bc f218 0cbe d680 8d3d a847 ef3d
00000120: 6f73 1d3e aef7 303e 61ca dcbc 7201 debd
00000130: d929 adbe f5c3 87be bbac 25be 96b5 c3bd
00000140: 5451 08be 1b74 14bd 019d 2ebc ad8c ebbc
00000150: df0e 0cbe 065a 683b a323 9a3d cdc5 bebd
00000160: 4998 8a3d 28aa 173c 23da 27be 419a 4fbe
00000170: 5c35 67be 2d12 08be a9ba 4abe d99c 2bbe
00000180: f419 6bbe 6879 4dbe 60ec 11be 2785 db3d
00000190: d718 d43d 7ad4 7a3e ca0d 223d c8de 353d
000001a0: ade0 c93d d234 78bd df99 54bd 80b7 90bd
000001b0: c1e1 dabd 3034 91bc 47db d3bd 8c29 7bbd
000001c0: 05fb 533d 433c d3bd 6b7d cebd cc8c 363d
000001d0: 0235 d4bd 3810 353e b5f8 1abd 37ee 9bbd
000001e0: f4d1 d3bc 55ea f13c c1b8 c33d da76 1e3e
000001f0: a2fd 603d b0d1 9f3d 22fd c8bc 8f16 31bd
00000200: bb99 3f3e 5f29 0bbc 7ff5 c7bd b920 133e
00000210: 07b3 3a3d 30a6 973c 7a94 a03e c60a 19be
00000220: b2dc f8bc 80a8 213d 3d9b 253c 9d33 753e
00000230: c326 883e 7c9d 353d 173b 243e 3bf3 233e
00000240: 905e 94be 83ee 29be 19f6 d7bd e7c5 9dbd
00000250: b715 8bbe 7573 61be 7639 3fbd f985 2bbe
00000260: eba8 18be 84bb dbbd b79e a4bd 3e98 83bc
00000270: 8e70 a0bd 482c 26bd 67a2 e2bd 01a4 c8bd
00000280: 27ae 103d a154 28be d39c 4cbc dd09 02be
00000290: 6071 7fbd 3c02 793c 6a47 8fbd 0b46 a43d
000002a0: 0ead 4fbd df15 9b3d d322 fabd 5431 1cbd
000002b0: 5212 bbbc d1b8 a9bd 2c8b 0a3c 6054 a3bb
000002c0: 30e1 ae3a fca2 003d 95ae 16be 00ce 8dbd
000002d0: 47e1 353e 82e7 9f3d 8380 633e 5174 4cba
000002e0: 9a51 1abc 8e97 003d 7ab8 603d 7971 f03d
000002f0: 5c84 a43d abf3 92bd 62e6 a73a c18a 4fbe
00000300: a86b b73b 8c22 01be 233e a8bd 747f 77bd
00000310: 278e 7abd c500 c4bc a7ae 6a39 e4e9 d03c
00000320: bf7b 7bbc af6d 6d3d a3f3 5abc deb3 0dbe
00000330: f796 983d 8e15 263e 15de 483e 11f1 7d3e
00000340: b65c ba3c 912c 923e ccaa 113e 2a15 01bd
00000350: 0e48 943e c444 a63e 111b e83a 41ef 983e
00000360: 351f 1a3e d237 af3c f724 c93c 1e47 3c3d
00000370: 6004 8cbc 481c 24bc 30f7 4fbc dd6f 63bd
00000380: 693b ae3d 7dc0 ddbd 8a96 083e 349d 883d
00000390: d5f2 20be fe25 06be be4a 83bd 7387 59bd
000003a0: 9b8d 3e3b 4b1d 7cbb 278e b5bd eaeb 3fbe
000003b0: 5eb5 2cbd aeb8 08be 22d5 87be bbd5 c8bd
000003c0: 02c7 ad3d 50df 67be a7a5 50bd 9b19 89bd
000003d0: fe8a b8bd 2fc0 1bbe 0126 32be b1f3 98bd
000003e0: f7f4 35be e6ed 0c3d 6b6c f53c 9bc8 7d3d
000003f0: 2b2b 54bd e765 91bc 8d6a 1fbc 322d 01be
0.093303576 0.13790654 0.22707003 0.21794802 0.0070873243 0.026524073 0.112884216 0.14400244
0.1958871 -0.17476776 0.07329284 0.11492839 0.014162168 0.014395864 -0.06444521 -0.111140296
-0.018840479 0.079521544 -0.104850814 -0.10474526 0.047832686 -0.17353682 -0.010963762 -0.17852958
-0.15334377 -0.037808094 0.010593394 0.048105698 -0.063028134 0.004393835 0.12008226 -0.010468341
0.042467713 0.26384598 0.10223263 0.050005846 0.07104642 -0.0598114 0.005140157 0.0949347
0.027786607 -0.05973629 0.023312457 -0.06563032 -0.032718346 0.24852544 0.08246422 0.057066277
0.115382336 0.014040746 -0.027400501 0.16202241 0.19035412 0.1310519 -0.2331232 -0.3241319
-0.3444815 0.020106275 -0.2791563 -0.72042197 -0.35569945 -0.42894018 -0.67135787 0.1291882
0.1380276 0.23476946 -0.1456385 -0.15699548 -0.016015679 -0.13681391 0.06909339 0.11683589
0.15376066 0.17281982 -0.02695197 -0.108401194 -0.3382099 -0.2651669 -0.16179173 -0.09556119
-0.13312274 -0.03624354 -0.01065755 -0.028753603 -0.13677548 0.0035454049 0.075263284 -0.09315071
0.06767327 0.009256877 -0.16391806 -0.20273687 -0.22578949 -0.13288184 -0.19797768 -0.16759051
-0.22959119 -0.20065844 -0.14250326 0.10718756 0.103563 0.24495116 0.03956393 0.044401914
0.09857307 -0.06059725 -0.051904555 -0.0706625 -0.106875904 -0.01772508 -0.10344558 -0.06131892
0.051753063 -0.103142284 -0.10082515 0.044567868 -0.10361673 0.17681968 -0.03783484 -0.07613795
-0.02585695 0.029530684 0.095567234 0.15475026 0.054929383 0.078036666 -0.024534766 -0.043234404
0.18710987 -0.00849375 -0.097636215 0.14367951 0.04558089 0.018511862 0.3136328 -0.14945516
-0.030378673 0.039467335 0.0101078125 0.2394547 0.26592073 0.044339642 0.16038166 0.16010754
-0.28978395 -0.16594891 -0.10544986 -0.077037625 -0.27165005 -0.220167 -0.04668566 -0.16750325
-0.14908187 -0.10729125 -0.08038085 -0.016063806 -0.07833968 -0.040569574 -0.11066132 -0.09796906
0.035322335 -0.16438533 -0.012488562 -0.12699075 -0.062363982 0.015198287 -0.06996043 0.08021172
-0.050702147 0.07572531 -0.122136734 -0.03813298 -0.022835884 -0.08287204 0.008456033 -0.0049844235
0.0013342258 0.031405434 -0.14715035 -0.06924057 0.17761718 0.078078285 0.22216992 -0.0007799315
-0.009418869 0.031394534 0.05486343 0.11740393 0.08033058 -0.07175382 0.0012809748 -0.20267774
0.0055975504 -0.12610835 -0.08214977 -0.060424283 -0.061170723 -0.023926148 0.00022381042 0.025502153
-0.015349328 0.05796593 -0.013363752 -0.13838145 0.07450669 0.1621916 0.19615968 0.24798991
0.022749286 0.28549626 0.1422531 -0.031514324 0.28961223 0.3247434 0.0017708262 0.29870036
0.15050967 0.021388922 0.024553759 0.04596626 -0.01709193 -0.010016508 -0.012693211 -0.055526603
0.08507425 -0.1082773 0.13338676 0.06670609 -0.15717633 -0.1310043 -0.0641074 -0.05310769
0.0029076103 -0.0038469608 -0.08865004 -0.18742338 -0.042165153 -0.133517 -0.26529795 -0.09806391
0.08485223 -0.2264378 -0.05093923 -0.06694337 -0.09010886 -0.15210031 -0.1739731 -0.074683554
-0.17769228 0.034406565 0.029958924 0.06195889 -0.05179898 -0.017748786 -0.0097299935 -0.12614897

dw.nw.6.bias f4 [64]
00000000: 1c4d 003d 43b8 833c 145e 80bc e907 71bc
00000010: 2415 98bb be51 153d 8eeb 1f3d e6db 153d
00000020: 804a 6b3c c235 cc3c 1fb6 ddbc 3b48 9b3c
00000030: 3c64 3bba 50cb e8bb 72cb 0e3d af80 22bd
00000040: c87c f23c 7755 38bc 9c39 febc 040b 193d
00000050: 4fbc 10bc 6bfb 773c 6089 0fbd c47c 0cbc
00000060: 80d9 813c c38f b73c d489 f2bc a30c 773c
00000070: 2bec a9bc 7074 033d 32be 1c3c 06f5 0d3c
00000080: 52a3 17bd 24e5 1cbd 3992 27bc 1141 523c
00000090: 76e3 783c 4c56 06bd 42b8 513c 1e02 0e3d
000000a0: 6520 8f3b 6027 e33a e66d 7b3c 8c12 c9bc
000000b0: 44e1 88bb ab38 0dbc e5d6 b8bc 908c 01bd
000000c0: fb1d ffbb b228 d9bc 8d8c fcbc fb3e 063d
000000d0: 99e1 eb3c b043 f13c 0660 96bc eb97 193c
000000e0: 31b5 0d3d 3138 cfbc 67d7 63bc 9428 353c
000000f0: 942b 09bc 5345 5ebc ea3b 0f3d cdc2 bdbc
0.031323537 0.016079074 -0.01566986 -0.014711359 -0.004641192 0.03645491 0.039043 0.036586665
0.014361024 0.024927977 -0.027064381 0.01895534 -0.000714842 -0.007104315 0.03486199 -0.039673503
0.029600516 -0.011250845 -0.03103333 0.03736402 -0.008833959 0.015135626 -0.03504312 -0.008574668
0.015850782 0.022407418 -0.029606737 0.015078696 -0.020742496 0.032093465 0.0095668305 0.008664375
-0.03702099 -0.038304463 -0.010227733 0.012832896 0.01519095 -0.032797143 0.012800278 0.034669988
0.0043678754 0.001733046 0.015346026 -0.024544977 -0.0041772444 -0.008619468 -0.022563407 -0.03162819
-0.0077855564 -0.026508663 -0.030828739 0.032774907 0.028794097 0.029451221 -0.018356334 0.009374599
0.034596626 -0.025295349 -0.013906336 0.011057038 -0.008372206 -0.013566333 0.034969248 -0.023164177

dw.nw.7.weight f4 [64]
00000000: 8278 5a3f ebad cb3f 6985 923f 5b6f 743f
00000010: 6b14 973f 99f9 593f d0a6 703f 5afe 493f
00000020: 3147 9f3f c02e 773f a1d4 673f c40b 8a3f
00000030: 89d3 9d3f c8a9 8d3f 945a 6c3f 9694 883f
00000040: 0acf 683f 484d 6d3f e4bd 553f af84 533f
00000050: 1d2c 963f 7815 9a3f a0ce 533f dff2 623f
00000060: 2140 803f c7c0 a83f 0c1b 503f bb4a 553f
00000070: 1abd 6a3f e2bf 633f 82b7 523f cfc8 4f3f
00000080: ecc2 643f 98f5 823f 7d34 8c3f f15e 6f3f
00000090: 9b4e 483f 3281 2f3f e2a3 a43f 5904 683f
000000a0: 742a 883f 5ada 883f bcf2 693f abeb 813f
000000b0: ec4e 503f ad2e aa3f f0d0 7f3f dcfa 543f
000000c0: 165a ba3f 3595 833f 45d6 473f 8ea2 743f
000000d0: 4bda 543f 8ec6 303f f53a 843f a55d 5d3f
000000e0: 5aef 933f 1d9e 893f 1d7c 543f 2ca0 653f
000000f0: 2bd9 6c3f d326 453f 6a8d 713f 0854 933f
0.8534013 1.591245 1.1446964 0.95482415 1.1803106 0.8514648 0.94004536 0.78903735
1.2443601 0.9655571 0.9055882 1.078484 1.233018 1.1067438 0.9232571 1.0670345
0.90940917 0.92696047 0.83492875 0.82624334 1.1732212 1.2037802 0.8273716 0.8865184
1.001957 1.3183831 0.8129127 0.83317155 0.91694796 0.88964665 0.8231126 0.81165785
0.8935993 1.0231199 1.0953518 0.93504244 0.7824494 0.6855651 1.2862513 0.90631634
1.0637956 1.0691636 0.9138601 1.0150045 0.81370425 1.3295494 0.9992819 0.8319528
1.4558742 1.0279909 0.78061324 0.9556054 0.8314559 0.6905297 1.0330492 0.86471015
1.1557419 1.0751377 0.8300188 0.8969753 0.9251887 0.77012366 0.94356406 1.1510019

dw.nw.7.bias f4 [64]
00000000: 820c 38bc 0574 ce3d 037e edbe 1f3a c6bd
00000010: 3423 00be b78a 0b3f edeb 26bf a4aa fbbd
00000020: cb9a 643e 3fbe 013f ff74 d2be 7b67 af3e
00000030: b637 cabd e5dd 1ebd 37e9 babe 6a9b 22bd
00000040: 4d30 04bf 330e 40bf 5afd a6be 77ca 94bd
00000050: 032f 52be e2e9 c1be b2f1 98be 80a3 03bc
00000060: 74b3 06be 21db d0bd 21f5 e4bd c2ce eb3e
00000070: b98a ec3e 213d a3be 9cea c2bd b72b 07be
00000080: 8480 65bf 1361 a13e dd96 1d3e eff2 03bf
00000090: 7237 30be bc49 31be a7f3 043c 8de3 5dbe
000000a0: a6ab 86bd b676 1c3e 950a 5cbf 2275 d6be
000000b0: a04b b9be 1568 06be 0e81 3f3f d7fb 9bbe
000000c0: 4156 2bbe 5fac fe3d f283 84be c7ed 24bf
000000d0: eb41 22bf e9cc 4abe 0ff9 a9be faf5 83be
000000e0: 505d c6bd d72e 44bf 6734 60be 4526 3bbe
000000f0: 7384 6e3e 995b 0dbe 1880 04bf 52d9 fdbe
-0.011233451 0.10080723 -0.46385202 -0.096790545 -0.12513429 0.5450854 -0.65203744 -0.122884065
0.22324674 0.5068092 -0.41104886 0.34258637 -0.09873907 -0.038785834 -0.36506054 -0.039698996
-0.516362 -0.75021666 -0.32615167 -0.072651796 -0.20525746 -0.3787375 -0.298719 -0.008034587
-0.13154393 -0.101980455 -0.11179567 0.4605618 0.46199587 -0.31882575 -0.095174044 -0.1320027
-0.89649224 0.31519374 0.15389581 -0.5154256 -0.1720865 -0.17313284 0.008114732 -0.21668835
-0.06575708 0.1527966 -0.85953647 -0.4188624 -0.3619051 -0.13125642 0.74806297 -0.30465576
-0.16732122 0.12435221 -0.25881916 -0.6442532 -0.6338183 -0.1980473 -0.3319783 -0.25773603
-0.09685767 -0.7663397 -0.2189499 -0.18276317 0.23292713 -0.13804473 -0.51757956 -0.49579865

dw.nw.7.running_mean f4 [64]
00000000: a7a6 1dc0 6a11 913e 0f99 30c0 4ac7 bfbf
00000010: 54b1 123e ef39 11bf ca06 d8bf c945 063f
00000020: b438 d7be d687 a8bf 6fd2 63c0 53f1 6b3d
00000030: d003 8dbf 0d7e adbf 75f2 02be b0a6 b8bf
00000040: 2360 27c0 1793 ccbf a872 25c0 f4d3 1ec0
00000050: c777 dbbf 67ac 44be eeee e1bf 1913 8ebf
00000060: 436a 9ebf 7829 55bf 56f2 f3bf c3b3 a13e
00000070: bae5 0c3d 7366 a8bf d38d 86bf b590 22bf
00000080: 72bf b2be 988c 7cbf 07df 8dbf bbec 8dbf
00000090: fcc1 2bbf bf95 a8bf f7f0 20bf fd73 f7bf
000000a0: b37a 4bbf 8a94 54be 15bd 04be aac2 b2bf
000000b0: ab57 33bf 242e 31bf 5d30 803e 3b22 42bf
000000c0: 0fbb 04c0 903a 07c0 a050 6c3f 2cb1 5dbf
000000d0: 8196 a0bd 5786 2e3e 4b10 b4bf 4eac 20bf
000000e0: 88aa 21be e23e 18c0 f009 96bf 1792 23bf
000000f0: 2f27 c8bf 3430 6dbf 3da8 39c0 c5b6 1bc0
-2.4632967 0.28333598 -2.759342 -1.4982693 0.14325458 -0.56729025 -1.6877072 0.52450234
-0.4203545 -1.3166454 -3.5597188 0.05760319 -1.1016788 -1.3554093 -0.12787803 -1.4425869
-2.6152427 -1.5982388 -2.585123 -2.4816866 -1.7145928 -0.19206391 -1.765104 -1.1099578
-1.2376179 -0.832664 -1.905833 0.3158246 0.03439877 -1.3156265 -1.0512031 -0.63502055
-0.34911686 -0.9865203 -1.1083688 -1.108787 -0.6709287 -1.3170699 -0.62867683 -1.9332272
-0.794841 -0.20759788 -0.12962754 -1.3965657 -0.70055646 -0.6921103 0.25036898 -0.7583348
-2.0739172 -2.1129494 0.92310524 -0.8659847 -0.07841206 0.17043434 -1.4067472 -0.62762916
-0.15787709 -2.378838 -1.1721783 -0.6389479 -1.5636958 -0.9265168 -2.9008934 -2.4330304

dw.nw.7.running_var f4 [64]
00000000: 4026 8740 e248 2c40 770f ad40 3ae1 3940
00000010: 5b03 4340 a1fc 0940 baae 1940 4cc4 2640
00000020: 0d9f 4140 1bd6 8d40 49a0 7f40 f220 4340
00000030: edb4 9440 40bd 6e40 7634 d73f f350 4140
00000040: 9c4d 1340 5623 4240 b670 2b40 a5e6 0640
00000050: a7e8 4b40 672b 2e40 6273 1d40 01f6 8240
00000060: c66a 2b40 9b2f 9a40 7688 0a40 906d 4340
00000070: cb96 7f40 00dc 8a40 4df8 fd3f 3583 f93f
00000080: a461 3b40 8c75 3b40 2e07 4240 3c91 5240
00000090: 0352 d03f 5563 e83f 77cf 6c40 8651 8040
000000a0: e582 7f40 8185 1840 3388 2b40 c8fd 4940
000000b0: 8086 1b40 c629 5040 11fb 8a40 3750 4740
000000c0: e35a cc40 abf5 4340 57ab 2440 5582 6d40
000000d0: efd4 0c40 1ef8 ce3f 3832 5e40 9e9f 5840
000000e0: e75c 5140 8d6d 2540 cb86 2840 0cd4 1840
000000f0: da52 3840 61f6 0540 fb02 4640 9f4e 7840
4.223419 2.6919484 5.408138 2.9043717 3.0470798 2.1560442 2.4012895 2.605731
3.0253327 4.432386 3.994158 3.0488858 4.6470857 3.730301 1.6812885 3.0205657
2.301612 3.0334067 2.6787543 2.1078274 3.186075 2.721399 2.4601674 4.09253
2.678392 4.818311 2.164579 3.0535622 3.9935787 4.3393555 1.98414 1.9493166
2.9278345 2.9290495 3.0316882 3.2901144 1.6275028 1.8155314 3.7001626 4.0099516
3.9923642 2.3831484 2.680188 3.1561146 2.4300842 3.2525496 4.3431478 3.114271
6.3860946 3.0618694 2.5729578 3.7110798 2.2004964 1.6169469 3.471815 3.3847423
3.2712953 2.5848114 2.633227 2.3879423 2.8800569 2.0931628 3.093932 3.8797987

dw.nw.9.weight f4 [64, 64, 3, 3]
00000000: c644 d0bd 84c6 67bd 417c 2fbe 5e8f 93bd
00000010: e4be 4dbd 6a0a aebd 9d2c 823d 97ff 60bc
00000020: 13e3 bcbc 79ff 66bd 4339 24be 40c9 51be
00000030: d412 25be 89f6 58be a865 42be fbde 25be
00000040: e6a4 59be 47de 74be f507 80bd 638d a7bc
00000050: 6d59 293d e115 15be 5b0e 9bbc ed66 5e3e
00000060: cd19 303d 65d4 4abd 1784 163c f5f8 6b3d
00000070: d637 533d 8d49 a7bc f7d1 313c 9b44 883a
00000080: 32ec 9a3c 6ccc b83c 19c3 083c e30d 983d
00000090: 8cfa b23d d2d8 103e d305 6cbd 4c4f 45bd
000000a0: a392 9cbb 7eb8 bfbd 7a56 803b ee5c 52bd
000000b0: b4bf 0abd 33a2 ffbc 2bb3 883d 067f b13d
000000c0: 96e3 e3bb f8d7 90bd 9ed7 b7bd 8cb4 c63b
000000d0: ef69 cbbd 6b40 3cbe 9b20 0abd 0446 ad3c
000000e0: 76c5 963d 917a 073d 1327 b0bd 27b5 8c3d
000000f0: 9ccf 773c e662 a83d 14a0 e8bb a3e0 493d
00000100: e776 38bd 9d8f f2bc 7384 513c 38fc 80bc
00000110: a388 f83c 1402 273c b1ad ba3c d511 0a3e
00000120: 66a3 763e dfdb c63d 4339 593c fcd4 793e
00000130: 06c3 fe3d 8649 05be 9c84 ae3d dc62 94bd
00000140: 8ccf 4dbe 847f f63c 9dbe e23d 98ef c23d
00000150: cf6c 023d e34f 743d 572a 2e3d da8b 263d
00000160: a9b5 003e 3128 293e 69ea 5cbd 3f76 a6bc
00000170: f3bb d4bc 21dd 7e3d 4f75 443d a10a 0e3d
00000180: a7b4 b1bc 4a63 53bd 2b6f 70bd 8d2e 1ebe
00000190: 14d6 44bd ae04 fd3c 7b3d 25be c4ea 40bd
000001a0: cb6e 5a3e 3cf1 68be 210f 32bd 6ffd 413e
000001b0: 654f 033e b649 f43d bf05 253e 7c60 ed3c
000001c0: 4382 bc3c b3db 973c 3e3f 473d ada4 7ebc
000001d0: 0a6b d13c 7307 bd3c 8a12 763d 3e4d cf3d
000001e0: 8901 953c f3be 183d 5914 003e 1d63 adbd
000001f0: b578 603d 1aea a23d 9ca1 14bc 9bfb 70bd
00000200: b8ae 67bd eb28 633c d207 e5bd 90f5 1fbd
00000210: eeee 583d 8d32 d8bd 79bb 583c d765 1d3e
00000220: 937b 143c c278 023e 8162 943d 355e 2c3d
00000230: d2a4 113e 5c88 db3d 4722 b83a 53fd be3d
00000240: f7ac 46bd bdf3 a9bc f009 583d 4135 21bd
00000250: 0200 043d 3e9e b83d 73ef 1bbe 0c55 de3c
00000260: 7eb3 ea3d 316f f13c 82f9 a3bd 066d 88bd
00000270: f4b6 a9bd 34e0 1cbe f098 06be f66d b23d
00000280: ff8e 7eb9 dac8 bc3b 1889 e33c e33c 10bd
00000290: ce50 493d 3367 da3c af50 533c 1a59 8a3d
000002a0: cd4b 153e c197 223d 336f d63d 4961 0cbd
000002b0: affa 1dbd c2de 093d 884b 823b c35a 0bbd
000002c0: 0cea ad3d fbd8 aebd e988 c0bd 9ad9 c63d
000002d0: f907 25be 6946 22be 606d c4bd 92ee 38be
000002e0: 7eea 83bd 2d59 f3bd 341d 94bd 4359 af3b
000002f0: 8841 433d 5182 e13d 131e ba3d e233 003e
00000300: 924d 1fbd 6970 94bd 2868 8f3c 9d94 90bd
00000310: 4fb7 b2bd 39ec 9bbb b95c 193d d56d 933d
00000320: deb0 043d f263 553d fbd9 ba3d 868d 5a3d
00000330: a9c7 03bd b657 6cbc 2a17 90bc 1075 923d
00000340: c104 42bd 1cda 3f3d 9e29 843d de3d 233d
00000350: 6e53 993d 2f93 8f3c 48d6 2f3d 7a19 c33d
00000360: 002f 39bd 2672 8bbd 03bb 0ebd 7c45 58bd
00000370: 3a17 313d 8d62 383d 0b68 813d 2681 3f3d
00000380: be3c 793d cbe0 f63c c08e 91bb eca7 91bc
00000390: 725f 28bd 94fd e7bd 6d1c e4bd 610e 4a3e
000003a0: 68db f4bc 5a51 1ebc d8b2 803d e115 31bb
000003b0: a907 89bd 6a08 c53b c953 77bd 511c 19be
000003c0: ad92 0d3e 3db6 b53d a2d7 37bd f222 633d
000003d0: 2142 433c 46d3 693d c01e 9e3d 4323 b93d
000003e0: 2df4 5c3d 449f 503c 71f6 d53d 7548 743d
000003f0: 0ace c1bd 55d9 5bbd 8c6f 143d 5f5b 783d
-0.101693675 -0.056585804 -0.17137243 -0.072050795 -0.050230876 -0.0849808 0.063561656 -0.013732812
-0.023057496 -0.05639598 -0.16037469 -0.20486927 -0.16120464 -0.21187796 -0.18984091 -0.16198342
-0.2125431 -0.23912917 -0.06251518 -0.02045316 0.04134505 -0.14559127 -0.018927744 0.2171895
0.042993356 -0.04951896 0.009186766 0.05761047 0.05156692 -0.020420814 0.010853282 0.0010396423
0.018911455 0.022558413 0.008347296 0.07424524 0.08739194 0.1414521 -0.057622742 -0.048171327
-0.0047782226 -0.09361361 0.003916559 -0.051358156 -0.03387423 -0.031205272 0.066747986 0.08666806
-0.0069546206 -0.07072443 -0.089766726 0.0060640033 -0.099323146 -0.18383949 -0.0337225 0.02115155
0.073618814 0.033075873 -0.08601203 0.068704896 0.0151251815 0.082219884 -0.007099161 0.049286496
-0.04503527 -0.029609496 0.012787926 -0.015745267 0.030338591 0.010193367 0.0227879 0.13483365
0.24085769 0.09709906 0.013258281 0.24397653 0.124395415 -0.13016328 0.08521387 -0.072454184
-0.20098704 0.030090101 0.11071513 0.09518355 0.03184205 0.0596465 0.042520847 0.040660717
0.12569298 0.16519238 -0.05393449 -0.020320056 -0.025968527 0.062222604 0.047963437 0.034678105
-0.021692587 -0.05160836 -0.058699768 -0.15447445 -0.048055723 0.03088602 -0.16136734 -0.04709889
0.21331327 -0.22748274 -0.04347146 0.18944333 0.12823255 0.11928122 0.16115473 0.028976671
0.023011332 0.018537378 0.048644297 -0.015542191 0.025563736 0.023074841 0.060076274 0.10122155
0.018189209 0.03729148 0.12507762 -0.0846617 0.054802615 0.079548076 -0.009071734 -0.0588337
-0.05656311 0.013864736 -0.11183132 -0.039052546 0.052962236 -0.10556517 0.013228291 0.1537088
0.0090626655 0.12741378 0.07245351 0.04208203 0.1422303 0.10719368 0.0014048301 0.093256615
-0.048504796 -0.020746106 0.052743852 -0.039357428 0.03222657 0.09014557 -0.15228061 0.027140163
0.11460017 0.029471966 -0.08006574 -0.066614196 -0.08286849 -0.15319902 -0.13144279 0.0871238
-0.00024276598 0.005761248 0.027775332 -0.035214316 0.049149327 0.026660537 0.012897654 0.06755276
0.14579697 0.039695505 0.10470428 -0.034272466 -0.03856915 0.033659704 0.003976289 -0.034022104
0.084919065 -0.085374795 -0.094011135 0.09709473 -0.16116323 -0.15847172 -0.09591174 -0.18059757
-0.0644121 -0.11882243 -0.072321326 0.005351217 0.047669917 0.11011184 0.090877675 0.12519792
-0.038892336 -0.07248003 0.01750572 -0.07059596 -0.087263696 -0.0047583845 0.037441943 0.07198683
0.032395236 0.05209727 0.09123608 0.053357624 -0.032172833 -0.014425209 -0.01758917 0.07151234
-0.047367815 0.046838865 0.0645325 0.039853923 0.07486616 0.017526237 0.042928964 0.09526344
-0.04521084 -0.068088815 -0.034846317 -0.05280064 0.04323504 0.04501586 0.06318673 0.046754025
0.060848944 0.030136487 -0.004442066 -0.017780267 -0.04110665 -0.11327663 -0.11138234 0.19732048
-0.029889777 -0.00966295 0.06284112 -0.0027021097 -0.06690914 0.006012966 -0.060382638 -0.14952208
0.13825484 0.0887265 -0.044883378 0.05545325 0.011917622 0.05708625 0.07720709 0.09039929
0.0539438 0.012733284 0.104473956 0.059639413 -0.09463127 -0.05367406 0.036239192 0.060634013

dw.nw.9.bias f4 [64]
00000000: 61e7 46bc 92fc 883b 2e94 86bb 9564 0abd
00000010: 43e1 813b 4824 d3bc 7ba4 8e3a 308b ebbb
00000020: 8a0a 94bc dc5c 3ebd 6bc0 06bd 21f8 af3c
00000030: e0e0 af3c 795e 4c3c 13e8 133d e8e8 0fbd
00000040: 7324 fe3c 2063 30bd 5486 233d 91b0 85bc
00000050: 6d69 e1bc 139c ea3c f64a 003d f080 efbb
00000060: b293 0a3d 8ec9 49bb e25f f9bc 1a00 9b3c
00000070: 744f a13b 235c 5c3c 038d 2abc ae84 363c
00000080: 50da d13c 5f50 93bc 2687 313c 69b3 863c
00000090: 0c25 a43b 53dc 0e3d 4526 083d b596 e73c
000000a0: f05a 153d b76f 563b baf6 dcbc 43ef 05bd
000000b0: 7aad 1abc c97f d53c 7d10 c7bc 1867 01bd
000000c0: e4bc 283c bbae 323d 333e 723c df57 12bd
000000d0: a0cd f43b f97a f03b 2111 d83c ae69 20bc
000000e0: 4ed2 123d 3ecc 8a3c 6fcc e73b fd45 523b
000000f0: 6430 1abc bba4 1cbd 5743 84bc 2daf 9e3b
-0.012140126 0.0041804994 -0.00410702 -0.03378733 0.003963621 -0.025774136 0.0010882759 -0.0071882233
-0.018071432 -0.046475276 -0.032898348 0.021480622 0.021469533 0.012473696 0.036109995 -0.035134226
0.03102324 -0.043063283 0.039923027 -0.016319545 -0.027516091 0.028638875 0.03132149 -0.0073090717
0.03383226 -0.0030790302 -0.030441228 0.018920947 0.0049228016 0.0134497015 -0.010409596 0.011140032
0.025616795 -0.01798266 0.010835445 0.016442971 0.005009299 0.034878086 0.03323962 0.028270105
0.036463678 0.0032720396 -0.026973117 -0.03269888 -0.009440774 0.02606191 -0.024299854 -0.03159246
0.010298941 0.043623667 0.014785337 -0.03572833 0.0074708015 0.0073388782 0.026375355 -0.009790821
0.035845093 0.016943093 0.007073931 0.0032085173 -0.009410951 -0.038243037 -0.016145391 0.00484266
